model/model.pth (torch, 17216 bytes, 4 tensors)

linear1.weight f4 [256, 11]
0	0x3c8a6185	0.016892204
1	0xbe66c51c	-0.22536129
2	0x3e3cb472	0.1842821
3	0xbd058502	-0.03259755
4	0x3dabb059	0.08383245
5	0xbc98f169	-0.0186698
6	0x3bfe252b	0.0077558956
7	0x3db547a6	0.088515565
8	0xbe1fea14	-0.15616637
9	0x3dd484e5	0.1037691
10	0x3e154df1	0.14580514
11	0x3da6f833	0.08152809
12	0x3dc16279	0.0944261
13	0x3e3e065f	0.18557118
14	0x3e79ca18	0.24393499
15	0x3e726ceb	0.23674361
16	0xbda4b700	-0.08042717
17	0x3cf7f2b0	0.03026709
18	0xbd2f6352	-0.04281933
19	0xbe0d0606	-0.13771829
20	0xbd9d4d5d	-0.076807715
21	0x3d6d223d	0.05789398
22	0x3e69a187	0.22815524
23	0x3dc378e7	0.09544545
24	0x3e1d7d86	0.15379915
25	0xbdbf56b3	-0.093427084
26	0x3d7fa69f	0.06241476
27	0xbe52afd9	-0.20574893
28	0xbe39d810	-0.18148828
29	0x3e05f9a4	0.13083512
30	0x3e768675	0.24074729
31	0x3e417f23	0.18896155
32	0x3defef49	0.11715562
33	0xbe7c38b1	-0.24631001
34	0x3c449ff8	0.01200103
35	0x3db3a611	0.08771909
36	0x3da77920	0.081774
37	0xbe8950b1	-0.26819375
38	0xbd2a8998	-0.041635126
39	0xbd05f155	-0.032700855
40	0x3ab89f6a	0.0014085595
41	0xbe3c6204	-0.18396765
42	0x3c250cf5	0.01007389
43	0x3e31df53	0.17370348
44	0xbe7d959e	-0.24764106
45	0xbe804ce8	-0.25058675
46	0xbd6f8010	-0.05847174
47	0xbe4822fe	-0.19544598
48	0x3d7e0c6e	0.062023573
49	0xbd26ed77	-0.040753808
50	0xbe800821	-0.25006202
51	0xbe5a2810	-0.21304345
52	0x3dc5943d	0.09647415
53	0x3c8aa837	0.016925914
54	0xbe310bc1	-0.1728964
55	0xbd014a10	-0.031564772
56	0x3d6e4538	0.05817148
57	0xbe68e54c	-0.2274372
58	0xbbaf0e00	-0.005342245
59	0xbe5bedf3	-0.21477489
60	0xbe783f15	-0.24242814
61	0xbe41348b	-0.188677
62	0xbe99c580	-0.30033493
63	0xbc5d9e80	-0.013526559
64	0xbe05468e	-0.13015196
65	0xbe4a4856	-0.19754156
66	0x3e2f98cb	0.1714813
67	0x3e129cf1	0.14317681
68	0xbdafeab0	-0.08589685
69	0x3daaf7cc	0.08348045
70	0x3c27f7c5	0.010251944
71	0xbe639973	-0.22226505
72	0x3e367ef3	0.17821865
73	0x3e21c97b	0.15799515
74	0x3e8cc772	0.27495915
75	0x3d83968e	0.064252004
76	0x3e958607	0.29203817
77	0xbe8cdad9	-0.27510718
78	0x3ce768dd	0.028248245
79	0xbd14a3f8	-0.036289185
80	0xbe59a4a2	-0.21254209
81	0x3e59f9e8	0.21286738
82	0xbd007aa0	-0.031366944
83	0xbcad7a90	-0.021176606
84	0xbe8d26a9	-0.27568558
85	0xbc1e2822	-0.009653123
86	0x3cb587d9	0.022159504
87	0xbe1fad71	-0.15593506
88	0x3d0a7943	0.03380705
89	0xbd98bf04	-0.07458308
90	0x3e53ab0d	0.2067072
91	0xbd76692d	-0.060158897
92	0x3def1503	0.116739295
93	0x3e2e7ccd	0.17039795
94	0xbe3a38be	-0.18185708
95	0xbdfe045b	-0.124031745
96	0xbe0e677f	-0.13906668
97	0x3e20b3a5	0.15693529
98	0xbe86b194	-0.26307356
99	0xbe5371af	-0.20648836
100	0x3e3473d7	0.17622314
101	0xbe84d945	-0.25947013
102	0xbe630524	-0.2216993
103	0xbcbad10c	-0.02280476
104	0x3cf1aeb3	0.029502248
105	0xbdaa6940	-0.08320856
106	0xbd7b40ae	-0.06134098
107	0xbe17f197	-0.14838253
108	0x3d830b72	0.063986674
109	0x3e75a36f	0.23988126
110	0xbe439e77	-0.19103418
111	0xbd34c5cf	-0.044133957
112	0xbcce4dfd	-0.025183672
113	0xbe190738	-0.1494416
114	0xbe83cb50	-0.25741053
115	0xbe0b0039	-0.13574304
116	0xbe1b3fe7	-0.15161096
117	0x3e7a552f	0.24446557
118	0xbdf5844e	-0.11988126
119	0xbe74329b	-0.2384743
120	0xbd2519a9	-0.040307675
121	0xbd89980d	-0.067184545
122	0xbe847449	-0.2586997
123	0xbd155b70	-0.036464155
124	0x3d51a0e0	0.051178813
125	0xbe94e265	-0.29078975
126	0x3dc2cb68	0.09511453
127	0x3da1b07b	0.07894989
128	0x3e1f05e7	0.15529595
129	0x3e596d3e	0.21233079
130	0xbe97895d	-0.29596987
131	0x3c1d297f	0.009592413
132	0x3e68e52c	0.22743672
133	0x3e86e387	0.26345465
134	0xbe8b786c	-0.27240312
135	0x3e3aae49	0.18230547
136	0x3e71159a	0.23543397
137	0xbd4e86cf	-0.050421532
138	0x3df633b6	0.12021582
139	0x3b4b510d	0.0031023652
140	0xbe05ebe7	-0.13078271
141	0x3e8fe481	0.28104022
142	0xbe80c263	-0.25148305
143	0x3e75ac20	0.23991442
144	0x3dbc1eb9	0.091855474
145	0x3e8f7522	0.28019053
146	0x3e774e10	0.24150872
147	0x3d38171a	0.044943906
148	0x3e6bb8b8	0.23019683
149	0x3dd779de	0.10521291
150	0xbe59cc0b	-0.21269242
151	0x3df42711	0.11921514
152	0x3da24ac7	0.07924419
153	0x3e2155ac	0.15755337
154	0x3c24043f	0.010010778
155	0x3dcfe5fc	0.10151288
156	0xbdab522f	-0.08365285
157	0xbe2bfdc1	-0.16796018
158	0x3e36163d	0.1778192
159	0x3b8d36d7	0.004309516
160	0xbe01b3a7	-0.12666188
161	0xbdc265db	-0.09492084
162	0x3e38877d	0.18020435
163	0x3e31ea93	0.17374639
164	0xbd1a2c9e	-0.037640207
165	0x3c79ea8a	0.015253672
166	0x3e2e8d98	0.17046201
167	0xbe4b458b	-0.19850747
168	0x3e685b29	0.22691025
169	0x3e100987	0.14066134
170	0x3e9d5c0b	0.30734286
171	0xbe6a6b38	-0.22892463
172	0x3e4f0e76	0.2022036
173	0xbdceaaa2	-0.100911394
174	0x3e6a8974	0.22903997
175	0xbd1f90a3	-0.038956296
176	0xbdcb84df	-0.099374525
177	0xbe542c8f	-0.20720123
178	0x3e672ffa	0.22576895
179	0xbdccb5c6	-0.09995608
180	0x3e9702aa	0.2949422
181	0x3dcad05c	0.09903023
182	0xbe96cd23	-0.29453382
183	0x3e7b6868	0.24551547
184	0xbd794d28	-0.060864598
185	0x3e69e622	0.22841695
186	0x3d7dd765	0.061972994
187	0xbe8923f3	-0.2678524
188	0xbe35c9bb	-0.17752735
189	0x3d2c2ea8	0.042036682
190	0x3ce15d02	0.02751017
191	0x3d78d525	0.060750145
192	0xbe1ff9e4	-0.1562267
193	0x3dbbcccd	0.09169922
194	0xbd3289b3	-0.04358835
195	0xbe538df3	-0.20659618
196	0xbcbe33d0	-0.023218066
197	0x3e3a0ed3	0.18169717
198	0xbe4ad68e	-0.19808409
199	0x3ddd6074	0.108094126
200	0xbe20f884	-0.15719801
201	0xbe021cff	-0.12706374
202	0xbe9426e4	-0.2893592
203	0xbdfc2aac	-0.123128265
204	0xbe65456f	-0.22389768
205	0xbe96e7ab	-0.29473624
206	0xbe8ca4c2	-0.2746945
207	0xbe508d1a	-0.20366326
208	0xbe468fd8	-0.1939081
209	0xbe785017	-0.24249302
210	0x3e27bce0	0.16380644
211	0x3e60e8ae	0.2196376
212	0xbd97d67e	-0.07413958
213	0x3dbfa2c8	0.0935722
214	0x3e87cae4	0.2652198
215	0xbe170574	-0.14748174
216	0xbe100cba	-0.14067355
217	0xbe4aa55e	-0.19789645
218	0x3d327483	0.043568145
219	0x3e423dcc	0.18968886
220	0x3daef713	0.085432194
221	0xbdb5b8c7	-0.08873134
222	0x3cada5df	0.021197258
223	0x3e394c06	0.18095407
224	0x3e5cf1d3	0.21576624
225	0xbda15978	-0.07878393
226	0x3e6bb2a1	0.2301736
227	0xbe9da19d	-0.30787364
228	0xbe340df2	-0.17583445
229	0xbe6aeff2	-0.22943094
230	0x3c978776	0.01849721
231	0x3e26c2ee	0.16285297
232	0xbe563e86	-0.20922288
233	0xbc73dc40	-0.014884055
234	0xbe80db66	-0.25167388
235	0xbda1ab9f	-0.07894062
236	0xbd25670d	-0.04038148
237	0xbdc73d85	-0.09728531
238	0xbe78a928	-0.24283278
239	0x3e8707a8	0.2637303
240	0xbe2dc638	-0.16970146
241	0x3e8a2dac	0.2698797
242	0xbe862d7d	-0.2620658
243	0xbddfd15a	-0.109286025
244	0xbde0b84e	-0.10972653
245	0xbdca6f26	-0.09884481
246	0xbe92fa52	-0.28706604
247	0x3e315241	0.17316534
248	0xbdae2626	-0.0850337
249	0xbe95258a	-0.29130203
250	0x3dcaa50c	0.098947614
251	0x3d77ddc0	0.06051421
252	0x3c32ab54	0.010905106
253	0xba635658	-0.0008672229
254	0x3dc92036	0.09820597
255	0x3c412760	0.011789173

linear1.bias f4 [256]
0	0x3db42e17	0.087978534
1	0xbe574e2b	-0.21025912
2	0x3d847c70	0.06469047
3	0x3e080831	0.13284375
4	0x3c000d97	0.00781574
5	0xbe72a964	-0.2369743
6	0xbe439ade	-0.19102046
7	0xbd182bc2	-0.037151106
8	0xbe4aedae	-0.1981723
9	0x3e088fcc	0.13336104
10	0x3d4e9f18	0.050444692
11	0xbcc0b7fd	-0.023525232
12	0xbe17e787	-0.14834414
13	0x3e24215f	0.16028355
14	0xbd8b967f	-0.06815814
15	0xbe7abeff	-0.24486922
16	0xbead92a7	-0.3390095
17	0xbe20cb53	-0.15702562
18	0xbe1839b3	-0.1486576
19	0xbe0a8b35	-0.13529666
20	0xbcfb268c	-0.030658029
21	0xbe8fb2ec	-0.28066194
22	0xbe582d30	-0.21110988
23	0xbe40ff46	-0.18847379
24	0xbe5e84a3	-0.21730284
25	0xbcb93ce3	-0.02261204
26	0xbaa52df9	-0.0012602202
27	0xbdd5d388	-0.10440737
28	0xbdc0f558	-0.094217956
29	0xbea080c9	-0.31348255
30	0xbd9b7e3f	-0.07592439
31	0x3c5e09f6	0.01355218
32	0xbe518bcb	-0.20463483
33	0x3e594d9a	0.21221009
34	0x3eac5284	0.33656704
35	0x3d3eb46d	0.046558786
36	0xbe879838	-0.2648332
37	0xbe18cbc5	-0.14921482
38	0xbe8337d7	-0.2562854
39	0xbe8d18b1	-0.275579
40	0xbe8f874e	-0.28032917
41	0xbe7d6ef5	-0.24749358
42	0xbe6b7e60	-0.22997427
43	0xbe4d424f	-0.20044826
44	0xbdafa084	-0.08575538
45	0xbdc34dae	-0.095363006
46	0x3e7a6dcc	0.24455947
47	0x3e27af3a	0.16375437
48	0x3e772076	0.24133477
49	0x3dc96f75	0.09835712
50	0xbe6a71e6	-0.22895011
51	0xbe085e33	-0.13317184
52	0xbe9276a9	-0.28606156
53	0x3d9c7fa0	0.0764153
54	0x3d7bcd63	0.06147517
55	0xbdd74773	-0.10511675
56	0xbe104fa8	-0.14092886
57	0xbdc27fa1	-0.094969995
58	0xbd89d644	-0.06730321
59	0xbd37dd42	-0.044888742
60	0x3e953c00	0.2914734
61	0xbe07f06d	-0.13275309
62	0xbdbc49e2	-0.091937795
63	0x3ce3932d	0.02778014
64	0x3df32e79	0.11874098
65	0x3e23da10	0.16001153
66	0xbd83bb27	-0.06432181
67	0xbe46be18	-0.19408453
68	0x3da7015d	0.08154557
69	0x3ddc5d1c	0.10759947
70	0xbe95186f	-0.29120204
71	0xbc9ab26c	-0.018883906
72	0x3e150d44	0.14555842
73	0x3e189720	0.149014
74	0x3dae4a21	0.08510233
75	0xbe1168e6	-0.14200172
76	0xbe60c809	-0.21951307
77	0xbe7a02ce	-0.24415132
78	0x3e13ec03	0.144455
79	0x3e566286	0.20936021
80	0xbe383da1	-0.1799226
81	0x3d0b5f1b	0.034026247
82	0xbe32f3e0	-0.17475843
83	0x3e140883	0.14456372
84	0xbe69a2f2	-0.22816065
85	0x3d574b6e	0.05256217
86	0xbe617f85	-0.22021301
87	0x3dd09767	0.10185128
88	0x3e91a33c	0.2844485
89	0x3e1216eb	0.14266555
90	0x3e919ad0	0.28438425
91	0xbe868abe	-0.26277727
92	0x3dc8c95a	0.0980403
93	0xbdbc0ebb	-0.09182497
94	0xbca2fd83	-0.019896274
95	0x3e3ce631	0.18447186
96	0xbe2c2550	-0.16811109
97	0x3e07ad06	0.13249597
98	0xbce4631f	-0.027879296
99	0x3e3e70e1	0.18597747
100	0xbe65b8e4	-0.22433811
101	0x3d8a000d	0.06738291
102	0xbda786d5	-0.08180014
103	0xbd4f9b77	-0.050685372
104	0x3e506cc2	0.20353988
105	0xbca10acd	-0.01965847
106	0xbcaf095f	-0.021366773
107	0x3e24cb12	0.1609309
108	0x3d27fdd5	0.041013557
109	0xbe588d87	-0.21147738
110	0x3d049d5f	0.032376643
111	0x3db057b4	0.08610478
112	0x3da8394e	0.08214055
113	0xbdf3aa27	-0.11897688
114	0xbe66cee0	-0.22539854
115	0xbc7295ce	-0.014806224
116	0xbe59e0ca	-0.21277156
117	0x3e193547	0.1496173
118	0x3e8ed22f	0.27894732
119	0xbc011e1a	-0.007880712
120	0x3c0c40bc	0.008560356
121	0xbe0c7680	-0.13717079
122	0xbe36ef0c	-0.17864627
123	0xbe020b42	-0.12699607
124	0xbdc422c6	-0.09576945
125	0x3d0b238f	0.03396946
126	0x3e8895e9	0.26676872
127	0xbe0ee95c	-0.13956207
128	0xbe903226	-0.2816326
129	0xbe9fd7da	-0.3121937
130	0xbd811246	-0.063023135
131	0x3d85d55a	0.06534834
132	0x3cbac362	0.022798244
133	0xbd943408	-0.07236487
134	0x3d14d121	0.036332253
135	0xbdff1d89	-0.12456805
136	0x3ebb843e	0.3662433
137	0xbe8bfbc7	-0.27340528
138	0x3df6e9de	0.120563254
139	0x3e8f0770	0.27935362
140	0xbe19a6a5	-0.15004976
141	0x3e44ac31	0.19206311
142	0xbe864c8a	-0.2623027
143	0xbd5b90ea	-0.053604998
144	0x3e416152	0.18884781
145	0x3e8f6339	0.28005388
146	0x3e85bebe	0.26122087
147	0x3e913868	0.28363347
148	0xbe328582	-0.17433742
149	0xbd271c21	-0.04079831
150	0xbe1c5c2f	-0.1526954
151	0x3c81e4b4	0.015856124
152	0xbe401794	-0.18758994
153	0xbe8aa869	-0.27081612
154	0xbd3cf699	-0.04613361
155	0xbe104e57	-0.14092384
156	0x3e47a570	0.19496703
157	0x3d8779b0	0.06615007
158	0x3e2886b4	0.16457635
159	0x3e8102d3	0.25197467
160	0xbe55de73	-0.20885639
161	0x3e9004fb	0.281288
162	0x3e022c68	0.12712252
163	0x3e89ba3f	0.26899907
164	0x3e0d2208	0.13782513
165	0x3eab759f	0.33488175
166	0x3e20c4c2	0.15700057
167	0x3e6cb550	0.2311604
168	0xbd7af63a	-0.061269976
169	0x3e47e948	0.19522583
170	0xbe8150fd	-0.25257102
171	0xbda290c4	-0.07937768
172	0x3dc60c16	0.09670274
173	0x3e9d54c2	0.30728728
174	0x3e2d0652	0.16896942
175	0x3e12c4d1	0.14332892
176	0xbe9d7770	-0.30755186
177	0xbe87955e	-0.26481146
178	0x3e871e75	0.26390424
179	0xbd24ae8b	-0.04020552
180	0x3e6882f0	0.22706199
181	0xbd9e4f2f	-0.07729947
182	0x3d04283d	0.032264937
183	0xbe59dcb3	-0.21275596
184	0xbeaea8a9	-0.34113052
185	0x3e1bf695	0.15230782
186	0xbdf00f39	-0.117216535
187	0xbe2995f6	-0.16561112
188	0x3e8c24b0	0.2737174
189	0xbbb349e4	-0.005471455
190	0x3e577b61	0.21043159
191	0x3d4594a4	0.048237458
192	0x3d8e304d	0.069428064
193	0x3e81f20b	0.25379977
194	0x3e33bf57	0.17553459
195	0xbe3a93e4	-0.18220478
196	0xbe435d0e	-0.19078466
197	0x3e80ab2d	0.25130597
198	0x3e81db27	0.25362512
199	0x3ddfc1a7	0.10925608
200	0x3b99a9ec	0.0046894457
201	0x3d6e0df0	0.05811876
202	0x3dce511c	0.10074064
203	0xbe2a7da9	-0.16649498
204	0xbe4cab11	-0.19987132
205	0x3e95628b	0.29176745
206	0xbe153b05	-0.14573295
207	0x3dea18a5	0.11430482
208	0xbe7ab96d	-0.24484797
209	0x3e143a23	0.14475302
210	0xbc061ffb	-0.008186336
211	0xbe79508f	-0.24347137
212	0xbdb185af	-0.08668076
213	0xbe26a0a6	-0.1627222
214	0xbe5e05ad	-0.21681853
215	0xbea03347	-0.31289122
216	0x3c35895e	0.011080114
217	0x3defdf3f	0.11712503
218	0xbd88e529	-0.06684334
219	0xbea72781	-0.32647327
220	0xbe857d0a	-0.2607196
221	0x3e57ae06	0.21062478
222	0x3bb6a266	0.0055735586
223	0x3dca2c0d	0.09871683
224	0x3d67943b	0.056537848
225	0xbe15a9d9	-0.14615573
226	0x3e88fdc6	0.26756114
227	0xbd99b339	-0.07504887
228	0xbe9829fd	-0.29719535
229	0x3c9c23f3	0.01906011
230	0x3e6feb4d	0.23429604
231	0xbd1ef841	-0.038810972
232	0x3e771ce2	0.24132112
233	0xbd9d5f71	-0.0768422
234	0x3e44f870	0.19235396
235	0x3e67ec44	0.22648722
236	0x3e829999	0.2550781
237	0xbe8f9b70	-0.28048277
238	0xbe40ea39	-0.18839349
239	0x3e84b123	0.25916395
240	0xbd1fd0b4	-0.039017394
241	0xbe7e8b63	-0.2485786
242	0xbd34878f	-0.04407459
243	0x3d23e362	0.04001177
244	0xbe3cd606	-0.18441018
245	0xbdd967b2	-0.106154814
246	0xbdd2a840	-0.102859974
247	0x3ea5efa3	0.3240939
248	0xbd6af415	-0.05736168
249	0x3de87278	0.11349958
250	0x3ea879da	0.32905465
251	0x3e31c00e	0.1735842
252	0x3e2e75d6	0.17037138
253	0x3e2d3a8e	0.16916868
254	0xbdda27fb	-0.10652157
255	0xbdb1c6f9	-0.08680529

linear2.weight f4 [3, 256]
0	0xbcf4abbf	-0.029867051
1	0x3cf9cc19	0.03049283
2	0xbdcd8f98	-0.10037154
3	0xbccc7fe0	-0.02496332
4	0xbc0e9a93	-0.008703846
5	0x3d12873e	0.03577351
6	0xbcaa8edf	-0.02082008
7	0xbd9b0237	-0.07568782
8	0x3ca67253	0.020318186
9	0x3d37bb67	0.044856455
10	0xbda59096	-0.08084218
11	0xbc141dfa	-0.00904035
12	0xbdb002c9	-0.08594281
13	0xbca556fd	-0.02018308
14	0x3cd581cf	0.026062874
15	0x3d93e3ff	0.07221221
16	0xbd249dbc	-0.04018949
17	0xbca83870	-0.020534724
18	0xbbd19330	-0.00639572
19	0xbb37a187	-0.0028019862
20	0x3c41181b	0.011785532
21	0xbd11dc94	-0.03561075
22	0xbd845cf9	-0.064630456
23	0x3d4d364a	0.050100602
24	0xbd8c5e41	-0.06853915
25	0xbdb4a372	-0.08820237
26	0x3cc68d35	0.024237255
27	0x3ce0ac40	0.027425885
28	0xbc3ed09e	-0.011646418
29	0xbb11b186	-0.0022231056
30	0x3cf0c8f9	0.029392706
31	0xbce704da	-0.028200556
32	0x3d4ee4f9	0.050511334
33	0xbd7de5cd	-0.061986733
34	0xbda4f6e3	-0.080549024
35	0x3d14197e	0.036157124
36	0xbd0e72f4	-0.034777597
37	0xbdaabae0	-0.08336425
38	0xbd80c3a8	-0.062873185
39	0xbd10ca5c	-0.035349235
40	0xbd56de41	-0.05245805
41	0xbdc8706e	-0.09787069
42	0xbdbc80c5	-0.09204248
43	0x3d4cb11e	0.0499736
44	0x3c57e76e	0.013177736
45	0xbc4fbc12	-0.012679117
46	0xbd1924bd	-0.037388552
47	0xbd9a58f4	-0.07536498
48	0xbd2297fd	-0.03969573
49	0xbb889cc3	-0.004169078
50	0xbb87a393	-0.0041393726
51	0xbc0d4232	-0.008621739
52	0x3d4a75dc	0.049428806
53	0xbaa09ecb	-0.0012254355
54	0x3be0966c	0.006853869
55	0xbca5a064	-0.020218082
56	0xbd8dfbd4	-0.06932798
57	0xbdd35ab5	-0.10320035
58	0x3a5b4e80	0.00083658844
59	0xbd01d9dd	-0.03170191
60	0xbdb0145e	-0.08597635
61	0xbd75d83b	-0.060020667
62	0xbd270d4a	-0.040784158
63	0x3d3d9d06	0.046292327
64	0x3b68b76b	0.0035509716
65	0xbd870bb4	-0.06594029
66	0xbcb38b59	-0.021917032
67	0xbd5e7f8a	-0.05432085
68	0xbc1bb7ed	-0.009504301
69	0xbb45560e	-0.0030111107
70	0x3b8cf7b5	0.00430199
71	0xbd9b1bda	-0.07573672
72	0xbd15dfea	-0.036590494
73	0xbd91b38d	-0.07114325
74	0xbc81cf98	-0.015846059
75	0x3cf68786	0.03009392
76	0xbd4cf7fc	-0.050041184
77	0x3bcf367d	0.006323634
78	0xbdc793c0	-0.09744978
79	0xbdac68de	-0.08418439
80	0x3c0128fc	0.007883307
81	0x3c494142	0.012283625
82	0x3cde4945	0.027134547
83	0xbd94b56d	-0.07261167
84	0xbd1fca4b	-0.03901128
85	0x3d85b12f	0.06527936
86	0xbc0f81d9	-0.008758985
87	0xbca69470	-0.020334452
88	0xbd9e333f	-0.07724618
89	0xbd9acf21	-0.07559038
90	0xbdde76a4	-0.10862473
91	0xbcc3060a	-0.02380659
92	0x3ca6206b	0.02027913
93	0x3c8250ca	0.015907664
94	0xbd54ebf7	-0.051982846
95	0xbd6920ae	-0.05691593
96	0x3a506bcf	0.0007950635
97	0xbd01238e	-0.03152805
98	0x3d3564ef	0.04428571
99	0xbd1d278a	-0.038367786
100	0x3ce48550	0.0278956
101	0xbcb52d01	-0.022116186
102	0xbc66bb68	-0.014082767
103	0x3d7db1ff	0.06193733
104	0xbca60c50	-0.020269543
105	0x3cbad6a1	0.022807421
106	0xbd3f25eb	-0.04666702
107	0xbc7b5866	-0.0153409
108	0xbd778fb0	-0.060439765
109	0xbd8cb75b	-0.0687091
110	0xbd7d0b79	-0.06177852
111	0xbb6753c7	-0.0035297738
112	0xbd916081	-0.07098485
113	0xbd8750b0	-0.06607187
114	0xbd192446	-0.03738811
115	0x3a076d39	0.0005166117
116	0xbd695078	-0.056961507
117	0xbd8bb21c	-0.06821081
118	0xbd5e68d0	-0.054299176
119	0x3cdee4cd	0.02720871
120	0x3bd3b5f9	0.006460902
121	0xb9698de1	-0.00022273466
122	0xbc40b830	-0.011762664
123	0x3d2ed6cd	0.04268532
124	0x3d17f5a2	0.037099488
125	0xbc899073	-0.016792512
126	0xbc9760fa	-0.01847886
127	0x3c5cfe27	0.013488329
128	0x3c566c2c	0.013087314
129	0xbc960ac2	-0.018315677
130	0x3d954b08	0.07289702
131	0xbd96a815	-0.07356278
132	0xbc278351	-0.010224179
133	0xbda6a1af	-0.081363074
134	0xbd3ba35e	-0.045810096
135	0xbb993f36	-0.004676725
136	0xbda0f273	-0.078587435
137	0x3d07bf71	0.033141557
138	0x3b3f6d79	0.0029209538
139	0xbcdceaa8	-0.026967362
140	0x3d548234	0.051881984
141	0xbc3e7ee9	-0.011626937
142	0x3d1bd7a4	0.038047448
143	0x3d152384	0.036410823
144	0xbcb2972e	-0.021800604
145	0xbdb925f9	-0.09040446
146	0xbdc45363	-0.09586217
147	0xbd8cbac4	-0.0687156
148	0xbcbf500d	-0.0233536
149	0x3d209257	0.03920206
150	0x3bac20d7	0.0052529383
151	0x3c6e313b	0.014538105
152	0xbcdd4608	-0.027010933
153	0x3d125eaf	0.03573483
154	0x3c85387b	0.016262284
155	0x3cb5d949	0.022198336
156	0x3d5d0050	0.053955376
157	0x3c6e181c	0.014532115
158	0xbd51809d	-0.051148046
159	0xbdbe576e	-0.0929402
160	0xbdd9e8e6	-0.10640125
161	0xbd2dffc4	-0.042480245
162	0xbd1f9477	-0.038959946
163	0xbd728db9	-0.05921719
164	0x3d0abe99	0.033873174
165	0xbdaefe21	-0.08544565
166	0x3ca9e762	0.020740215
167	0xbcb0ee1c	-0.021597914
168	0xbc64a973	-0.0139564155
169	0xbdd64759	-0.10462827
170	0x3dc1c102	0.094606414
171	0x3d876871	0.066117175
172	0x3d1545fe	0.036443703
173	0xbd1b1fe2	-0.037872203
174	0x3d3b7bc5	0.045772333
175	0xbbca0346	-0.006164941
176	0xbd285337	-0.041094985
177	0x3d11deab	0.035612743
178	0xbce39e98	-0.027785584
179	0xbd81c23a	-0.06335874
180	0xbd2ae02c	-0.041717693
181	0x3d1c1d5e	0.038113944
182	0xbd8cd5e4	-0.06876734
183	0xbd2dee2b	-0.042463463
184	0xb8dca011	-0.00010520232
185	0x3c8be9ba	0.017079223
186	0x3ac5a531	0.0015079138
187	0xbd2148a3	-0.039375912
188	0xbdad3e35	-0.08459131
189	0x3cde0f64	0.027106948
190	0xbca47088	-0.02007319
191	0xbb6c9cff	-0.003610432
192	0x3d074876	0.03302809
193	0xbd21221f	-0.03933918
194	0xbcf5ac00	-0.029989243
195	0xbd0f6677	-0.035009827
196	0x3d86b3b2	0.06577243
197	0xbd35c6a5	-0.044378895
198	0xbcfd60d1	-0.030929955
199	0xbb932eff	-0.0044916864
200	0xbd195674	-0.037435964
201	0xbc025e3a	-0.007957036
202	0x3c398461	0.0113230655
203	0xbd43d4a5	-0.047810216
204	0xbd8fa990	-0.07014763
205	0xbd06d81c	-0.03292094
206	0xbdafa2a6	-0.085759446
207	0xbd9b080f	-0.075698964
208	0xbd3b56ea	-0.045737185
209	0x3bd296d4	0.0064266715
210	0xbdd67fb3	-0.104735754
211	0xbdd94db9	-0.106105275
212	0xbc6078d3	-0.013700682
213	0x3d080edc	0.033217296
214	0xbd5db4d1	-0.054127518
215	0xbc8dc532	-0.017305944
216	0x3d887135	0.066622175
217	0xbd3035ff	-0.043020245
218	0x3ba99cd8	0.005176168
219	0xbcdfe76f	-0.027332036
220	0x3d9a688d	0.07539473
221	0x3bec3b64	0.0072092284
222	0xbd704676	-0.058660947
223	0xbc3e0f6c	-0.011600357
224	0xbd04e5ee	-0.03244584
225	0x3c2b1209	0.010441312
226	0xbb1c6733	-0.0023865222
227	0xbdc03505	-0.09385113
228	0xbda885a1	-0.08228613
229	0xba530d7b	-0.000805102
230	0x3d0cc338	0.034365863
231	0xbd53f204	-0.051744476
232	0xbd4c0455	-0.04980882
233	0xbbccf78b	-0.0062550954
234	0x3b9b2c93	0.0047355383
235	0x3abf6e78	0.0014605066
236	0x3d00ba3d	0.03142761
237	0x3cbb3f87	0.02285744
238	0xbd33dd6b	-0.043912333
239	0xbda99842	-0.08280994
240	0xbd27707a	-0.04087875
241	0x3b4d04e0	0.0031283423
242	0x3cdb9093	0.026802337
243	0xbd3b8ed7	-0.04579052
244	0xbd97f5a3	-0.07419898
245	0xbd08aa4f	-0.033365544
246	0xbbbfd715	-0.005854497
247	0xbbf5fa45	-0.007506641
248	0xbdc70d00	-0.097192764
249	0xbdd148cf	-0.10218965
250	0xbd9e70f5	-0.077363886
251	0xbd1e2f93	-0.03861959
252	0xbdd91e55	-0.106014885
253	0x3c2888e1	0.010286541
254	0xbc373747	-0.011182613
255	0xbc0b7235	-0.008511116

linear2.bias f4 [3]
0	0xbd661beb	-0.05617897
1	0xbd87760b	-0.06614312
2	0xbd09171b	-0.0334693
